(opensim-rl) Silver-Bullet:scripts haodongma$ python run_ddpg.py --train --model ddpg500k.type3 --reward 3 --steps 500000
Using TensorFlow backend.
Updating Model file from 30000 to latest format...
Loaded model gait9dof18musc_Thelen_BigSpheres.osim from file /Users/haodongma/Documents/Projects/cs229-osim-rl/osim/env/../models/gait9dof18musc.osim
_________________________________________________________________
Layer (type)                 Output Shape              Param #
=================================================================
flatten_1 (Flatten)          (None, 57)                0
_________________________________________________________________
dense_1 (Dense)              (None, 64)                3712
_________________________________________________________________
activation_1 (Activation)    (None, 64)                0
_________________________________________________________________
dense_2 (Dense)              (None, 32)                2080
_________________________________________________________________
activation_2 (Activation)    (None, 32)                0
_________________________________________________________________
dense_3 (Dense)              (None, 18)                594
_________________________________________________________________
activation_3 (Activation)    (None, 18)                0
=================================================================
Total params: 6,386
Trainable params: 6,386
Non-trainable params: 0
_________________________________________________________________
None
____________________________________________________________________________________________________
Layer (type)                     Output Shape          Param #     Connected to
====================================================================================================
observation_input (InputLayer)   (None, 1, 57)         0
____________________________________________________________________________________________________
action_input (InputLayer)        (None, 18)            0
____________________________________________________________________________________________________
flatten_2 (Flatten)              (None, 57)            0           observation_input[0][0]
____________________________________________________________________________________________________
concatenate_1 (Concatenate)      (None, 75)            0           action_input[0][0]
                                                                   flatten_2[0][0]
____________________________________________________________________________________________________
dense_4 (Dense)                  (None, 64)            4864        concatenate_1[0][0]
____________________________________________________________________________________________________
activation_4 (Activation)        (None, 64)            0           dense_4[0][0]
____________________________________________________________________________________________________
dense_5 (Dense)                  (None, 32)            2080        activation_4[0][0]
____________________________________________________________________________________________________
activation_5 (Activation)        (None, 32)            0           dense_5[0][0]
____________________________________________________________________________________________________
dense_6 (Dense)                  (None, 1)             33          activation_5[0][0]
____________________________________________________________________________________________________
activation_6 (Activation)        (None, 1)             0           dense_6[0][0]
====================================================================================================
Total params: 6,977
Trainable params: 6,977
Non-trainable params: 0
____________________________________________________________________________________________________
None
W tensorflow/core/platform/cpu_feature_guard.cc:45] The TensorFlow library wasn't compiled to use SSE4.1 instructions, but these are available on your machine and could speed up CPU computations.
…
